models/initial_model.pth (torch, 1795 bytes, 4 tensors)

linear1.weight f4 [4, 6]
0	0xc129098a	-10.564829
1	0xc09fbf1a	-4.992078
2	0x41475968	12.459328
3	0xc077dc37	-3.8728158
4	0xc18f1803	-17.886724
5	0x4126971b	10.411891
6	0xc09aaae3	-4.83336
7	0xbe151b09	-0.14561094
8	0x4040e09d	3.0137093
9	0x4061b3aa	3.5265908
10	0xc129ca84	-10.611942
11	0xbe23ca23	-0.15995078
12	0xbeaaeff3	-0.33386192
13	0xbe952ad4	-0.29134238
14	0xc1002e48	-8.011299
15	0x3e029420	0.12751818
16	0x409abec8	4.8357887
17	0x40898547	4.297519
18	0xbe918bf3	-0.28427085
19	0x3d93ffe3	0.07226541
20	0xc0691ab9	-3.642256
21	0xbe95635c	-0.29177368
22	0x40cf6f40	6.4823303
23	0xc06aa3da	-3.6662507

linear1.bias f4 [4]
0	0xc11d109e	-9.816557
1	0xc0784ff4	-3.87988
2	0xc04037fa	-3.0034165
3	0x4025df2b	2.591746

linear2.weight f4 [6, 4]
0	0xbef414c0	-0.4767208
1	0x40149b0e	2.3219638
2	0xc03a8e00	-2.914917
3	0xbe96e123	-0.2946864
4	0xbfa9dfc5	-1.3271414
5	0xbfe3c71c	-1.7795138
6	0x3ea13407	0.31485006
7	0x3f9ba96c	1.2161078
8	0xbf2fbb3f	-0.6864509
9	0xbe39c235	-0.1814049
10	0x3fa6a9e1	1.3020593
11	0x3f3a12e5	0.7268508
12	0x3ee407b1	0.44537118
13	0x3f522b9a	0.8209778
14	0x3f6c0f1f	0.9221057
15	0xbdc552b4	-0.09634915
16	0x3f6c65a1	0.92342573
17	0x3e6ed95e	0.23325107
18	0x3ea6166f	0.3243899
19	0xbf50de8d	-0.81589586
20	0x3f8a1038	1.07862
21	0xbf5d5ea0	-0.8647251
22	0xbee84682	-0.45366293
23	0xbfa87b58	-1.3162642

linear2.bias f4 [6]
0	0xbf598d6d	-0.84981424
1	0xbff71605	-1.9303595
2	0xbf8a0ab7	-1.078452
3	0x3eb00d4e	0.3438515
4	0x3fa5b1b3	1.2944854
5	0x3fde8acc	1.7386107
